chatbot_model.pth (torch, 11588 bytes, 6 tensors)

l1.weight f4 [8, 176]
0.37620652 0.9195056 -0.79407567 -0.13209443 0.8559396 -0.74830854 0.76858217 -0.7248259
0.8043845 0.15759848 -1.0166374 0.47728214 0.84845585 0.17018938 -0.67094874 -0.053839214
-0.04286868 0.6725792 0.99894637 0.42295918 0.41405722 0.044729054 0.9053096 0.67803967
0.20640036 -0.89901 0.28457952 -0.42259854 0.5161467 0.9665131 0.34087402 -0.36848933
0.49344072 -0.21227872 0.010535396 -0.4684098 -0.24317685 0.6308215 0.785938 -0.6483574
0.397819 0.6652743 0.6860772 -0.75414544 -0.34039164 0.3253213 -0.21890594 -0.08682522
-0.98526 -0.05564774 0.69370896 -0.2361451 0.4607599 0.5513765 0.27363682 -0.026026025
-1.1199496 0.06947061 -0.42726487 0.6472903 0.20636407 -0.58861214 0.0057756626 -0.78977746
0.71377033 -0.64117897 0.6668828 0.87810075 0.8898317 0.118270844 -0.9512032 0.37238875
-0.77394146 0.96477073 -0.178335 -0.34366584 -0.6823664 -0.15395322 -0.16166723 -0.29241204
0.627522 -1.1368302 0.3040969 0.5285982 0.6982416 0.3525943 0.11468593 0.19673942
0.14667884 1.0576173 0.5567979 -0.84434664 0.28937364 -0.4358931 0.2583249 0.66370904
-0.38691473 -0.94772685 -0.6248145 -0.9645205 -0.9583764 -0.7046683 0.5375336 -0.52125734
-0.04355447 -0.022282993 0.8842693 0.82672834 -0.70084023 0.98802346 -0.6506381 0.6375688
0.60980815 0.21873336 -0.7992571 -0.71142906 -0.51911956 0.5469063 0.3412817 0.36587304
-0.8895497 0.78239375 -0.557756 -0.5940882 -0.6580733 -0.77175814 0.03507606 0.45210436
-0.6198289 -0.30555114 0.12841429 -0.18530646 -0.033563796 0.8316415 0.03466704 0.8603614
0.980399 0.41376966 0.14314708 0.62892765 0.52745646 -0.54753315 -1.0966907 -0.06277313
0.676355 -0.77269953 0.5970561 0.56520134 0.22794032 0.34884563 -0.6020821 -0.8365787
-0.18919654 0.38395783 0.34679174 0.87529385 0.80293316 0.84966266 0.6182682 0.88172084
-0.5485217 0.77760494 0.77521396 0.866838 0.31803507 -0.82170635 0.0043879845 0.58193415
-0.7327207 0.5086952 0.65063745 0.68304753 -0.7396753 -0.56147957 0.55050796 -0.06411455
0.59251267 0.29667026 -0.99365914 0.17255661 0.2775217 -0.5420962 -0.38348904 -1.0254493
0.7390964 0.26123002 0.60039467 1.0286767 -0.5355123 -0.8943772 0.16530329 -0.012209057
0.14550133 0.6056907 0.11422154 0.7534772 -0.046319198 -0.53261614 0.7398033 0.71271676
0.6459791 -0.7829986 0.012843152 0.19634154 -0.41846105 -0.2591245 0.5447178 -0.82495534
0.67404354 0.640095 0.88616276 0.25913826 0.18751562 1.015119 -0.32449636 0.042483408
0.5355453 0.39656624 -0.89764 0.48914206 -0.2853806 1.1251062 0.1596865 0.48694152
-0.6723552 -0.45418385 0.5276594 0.10789365 0.62716466 0.43559274 0.9003862 0.895796
-0.46849027 0.8079407 0.70727384 0.13481669 1.0806623 0.9776081 -0.02429877 0.24151853
-1.0448784 0.83525896 0.07016029 0.26582393 -0.22555561 -0.4546328 0.10984697 0.09479288
-0.17488687 -0.82458097 0.9300208 -0.90529394 0.5339572 1.2645462 -0.0050322823 -0.81563586
00000000: 249e c03e b864 6b3f 8b48 4bbf c343 07be
00000010: dc1e 5b3f 2691 3fbf cdc1 443f 318e 39bf
00000020: 25ec 4d3f 7f61 213e 2d21 82bf 535e f43e
00000030: 6734 593f 2046 2e3e 4cc3 2bbf 8286 5cbd
00000040: 1297 2fbd 272e 2c3f f3ba 7f3f 1b8e d83e
00000050: 4fff d33e d035 373d 5fc2 673f 0294 2d3f
00000060: 9e5a 533e 8525 66bf 68b4 913e d65e d8be
00000070: 3122 043f 676d 773f 0a87 ae3e a2aa bcbe
00000080: 43a4 fc3e 985f 59be a79c 2c3c 69d3 efbe
00000090: 5a03 79be 857d 213f 3c33 493f c0fa 25bf
000000a0: efae cb3e 6b4f 2a3f c1a2 2f3f ad0f 41bf
000000b0: d047 aebe 8390 a63e e128 60be 6cd1 b1bd
000000c0: 003a 7cbf e2ee 63bd e996 313f 05d0 71be
000000d0: b9e8 eb3e 0327 0d3f 201a 8c3e 8834 d5bc
000000e0: 825a 8fbf 9b46 8e3d 76c2 dabe d1b4 253f
000000f0: 1a51 533e 49af 16bf c541 bd3b db2e 4abf
00000100: a7b9 363f 4e24 24bf d5b8 2a3f 36cb 603f
00000110: 03cc 633f fc37 f23d 0e82 73bf bda9 be3e
00000120: 0721 46bf 37fb 763f 739d 36be f8f4 afbe
00000130: 90af 2ebf eaa5 1dbe 188c 25be 08b7 95be
00000140: 48a5 203f a783 91bf 97b2 9b3e 3652 073f
00000150: f6bf 323f 3d87 b43e 75e0 ea3d 0f76 493e
00000160: fa32 163e 0160 873f 4f8a 0e3f 1a27 58bf
00000170: c828 943e 612d dfbe 2943 843e d6e8 293f
00000180: b019 c6be 3a9e 72bf d8f3 1fbf d1ea 76bf
00000190: 2858 75bf 2465 34bf cd9b 093f 1f71 05bf
000001a0: 2c66 32bd d38a b6bc 795f 623f 78a4 533f
000001b0: 446a 33bf 1bef 7c3f 3890 26bf b537 233f
000001c0: 631c 1c3f a3fb 5f3e 1d9c 4cbf 3720 36bf
000001d0: 05e5 04bf 0d02 0c3f 7abc ae3e b653 bb3e
000001e0: 87b9 63bf f54a 483f 19c9 0ebf 2a16 18bf
000001f0: 7e77 28bf f191 45bf eaab 0f3d 397a e73e
00000200: 1bad 1ebf 3371 9cbe 097f 033e fac0 3dbe
00000210: 317a 09bd 75e6 543f 07ff 0d3d a540 5c3f
00000220: 6efb 7a3f 9ed9 d33e 2695 123e 6701 213f
00000230: 6307 073f 222b 0cbf 5c60 8cbf 338f 80bd
00000240: 9a25 2d3f a3cf 45bf abd8 183f 09b1 103f
00000250: 3069 693e e59b b23e 0d22 1abf 062a 56bf
00000260: bdbc 41be 1f96 c43e b08e b13e 4213 603f
00000270: 078d 4d3f 7e83 593f d346 1e3f 75b8 613f
00000280: eb6b 0cbf 1e11 473f 6c74 463f 18e9 5d3f
00000290: 7ed5 a23e 595b 52bf 15c9 8f3b a3f9 143f
000002a0: 9593 3bbf d939 023f 2d90 263f 34dc 2e3f
000002b0: 5c5b 3dbf 20bd 0fbf 17ee 0c3f 7d4e 83bd
000002c0: e9ae 173f 2ae5 973e 7260 7ebf aeb2 303e
000002d0: 5317 8e3e d1c6 0abf ad58 c4be ec41 83bf
000002e0: 6c35 3d3f f1bf 853e 77b3 193f aeab 833f
000002f0: 5617 09bf e7f5 64bf 4445 293e 7f08 48bc
00000300: 4dfe 143e 8c0e 1b3f fcec e93d e2e3 403f
00000310: 33b9 3dbd 8859 08bf c063 3d3f 9b74 363f
00000320: e35e 253f 9972 48bf 156c 523c c20d 493e
00000330: 8740 d6be f7ab 84be a072 0b3f 4630 53bf
00000340: 1e8e 2c3f 44dd 233f 90db 623f c5ad 843e
00000350: 1804 403e 6bef 813f 6324 a6be 1503 2e3d
00000360: 7f19 093f bb0a cb3e bccb 65bf d470 fa3e
00000370: 681d 92be 7b03 903f dc84 233e 6650 f93e
00000380: 781f 2cbf c98a e8be b014 073f 59f7 dc3d
00000390: dd8d 203f 0306 df3e b67f 663f e352 653f
000003a0: f5dd efbe 34d5 4e3f e60f 353f 630d 0a3e
000003b0: 2453 8a3f 8644 7a3f 370e c7bc a250 773e
000003c0: 93be 85bf 88d3 553f 33b0 8f3d 131a 883e
000003d0: 0df8 66be a1c5 e8be 73f7 e03d c522 c23d
000003e0: 8b15 33be bd17 53bf d815 6e3f 58c1 67bf
000003f0: 6bb1 083f a6dc a13f d8e5 a4bb 83cd 50bf

l1.bias f4 [8]
0.9886087 0.83019 0.8659821 0.82312334 0.6007571 0.71935904 0.7898043 0.865099
00000000: 7615 7d3f 5587 543f 01b1 5d3f 36b8 523f
00000010: 38cb 193f ea27 383f 9d30 4a3f 2177 5d3f

l2.weight f4 [8, 8]
-0.88343656 0.94096094 1.0646362 0.88875264 0.80528605 1.2342725 -0.89709044 0.9133898
-0.809609 1.072541 1.0863947 1.0287746 0.5863565 -0.27473816 1.1781268 -1.1654438
0.79673845 0.9365127 -0.72407395 1.2607869 -1.3874059 -0.947259 0.9016977 0.23148046
0.7365479 -1.0721915 0.602296 0.26529518 -0.9803557 1.0567533 1.2829657 1.043349
1.1331435 1.1366849 -0.9512826 -0.9072327 1.3185215 1.1256499 0.9380448 -0.0635135
1.1036681 0.47185707 1.1134808 -1.3336637 -0.81153387 -0.1188551 1.005527 -1.2362767
1.2965827 1.2892832 0.9337514 -1.142512 -0.6936294 -1.1767819 -0.87651724 0.9802876
0.77046835 0.84303606 1.0744187 -0.0010385951 1.137794 -1.2379178 -1.3892912 1.0103782
00000000: e628 62bf d1e2 703f 0046 883f 4b85 633f
00000010: 3a27 4e3f a4fc 9d3f b8a7 65bf ead3 693f
00000020: 8942 4fbf 0649 893f fb0e 8b3f e3ae 833f
00000030: 761b 163f 7baa 8cbe dccc 963f 432d 95bf
00000040: 0df7 4b3f 4cbf 6f3f e95c 39bf 7761 a13f
00000050: 8496 b1bf 917f 72bf a9d5 663f 3709 6d3e
00000060: 678e 3c3f 923d 89bf 1230 1a3f c5d4 873e
00000070: 97f8 7abf b143 873f 3838 a43f 768c 853f
00000080: d90a 913f e47e 913f 4287 73bf 6740 68bf
00000090: 50c5 a83f 4c15 903f b423 703f 5e13 82bd
000000a0: ff44 8d3f 4097 f13e 8a86 8e3f 7eb5 aabf
000000b0: afc0 4fbf 4d6a f3bd 1cb5 803f 513e 9ebf
000000c0: 6cf6 a53f 3b07 a53f 550a 6f3f d53d 92bf
000000d0: b291 31bf caa0 96bf 6f63 60bf 21f4 7a3f
000000e0: 6a3d 453f 36d1 573f 8d86 893f 7821 88ba
000000f0: 3ca3 913f 1774 9ebf 4bd4 b1bf 1354 813f

l2.bias f4 [8]
-0.93614376 -0.3663601 0.5868815 0.3321636 -0.44663444 0.57404864 0.28241497 0.5422631
00000000: 1ea7 6fbf 8d93 bbbe de3d 163f 5911 aa3e
00000010: 45ad e4be daf4 123f b298 903e c1d1 0a3f

l3.weight f4 [85, 8]
-1.3287904 0.7892979 -0.9788031 -0.7424312 0.44909507 1.0126489 0.34359664 0.52868736
0.41445887 0.3967249 -0.2985306 0.53322583 -0.9796159 1.1101601 -1.392106 -0.45970154
-0.039535046 0.27015942 -1.1049663 -0.6655257 0.941525 1.0018921 -1.1025947 -0.93607265
-0.60367554 -1.0529141 1.01465 -0.09893355 0.38992178 0.5602771 0.79062915 -0.91810524
-1.4485878 -0.69233245 0.11929924 -0.85372466 -0.8900431 1.3627535 0.99296373 0.90298796
0.7504856 0.4322903 0.6330493 0.2219505 -1.3715352 -0.62733024 -1.1178514 -0.9669479
1.4663062 -0.7406658 -1.2025923 -0.34963834 0.24642658 -0.77410114 -0.99228823 -0.022137536
0.1358113 -0.1920659 -1.142844 0.8742103 0.24878715 -0.8737821 -0.15491112 0.07157521
0.66398174 -0.33732107 -1.2826858 0.09672288 0.8429919 -0.45206788 -0.7691088 -0.80462074
-0.8715571 -0.66355646 0.009473911 0.4982734 -0.3001682 1.3747196 0.5335746 -0.88595855
-1.4470569 0.021654237 0.6462427 0.26768458 0.5502604 0.29876584 -1.4583743 -1.1541744
0.096584745 1.05321 -0.3452838 -0.9894393 0.41918 0.5849379 -1.1649239 -0.6427791
0.824883 -0.113168 -0.59441876 -1.2571186 -0.0689453 -0.93154615 0.12022546 0.9356163
0.5328325 -1.5612648 -0.8425132 0.263189 0.76046336 -1.130585 -1.4635097 0.27068734
-0.26733065 -1.0498512 -0.80436635 0.18517026 0.871579 -0.35854068 0.97241294 -0.3133778
-0.20987402 0.23893122 -0.011194478 -0.60105366 1.1739873 -0.43224972 -1.0579873 -1.0576941
-0.8869293 -1.3668985 -0.41537777 0.49544168 -1.1286469 1.3272414 0.8091266 0.04876322
0.8583538 -0.5706749 0.58569247 -0.5383636 -0.09323341 -1.0585209 -1.0961919 0.8732498
0.54663265 -0.5338863 0.016004095 0.14842859 0.8006511 -1.0953637 -0.642099 -1.1814669
-0.537767 -0.9438045 -0.66875 -0.88942814 0.8373233 -0.81417924 0.74301517 0.9399639
0.49058327 0.44368005 0.4320023 -1.3585044 0.73382187 -1.0243782 -0.7618992 0.10908688
0.27652636 0.60420007 0.83745396 -0.6860089 -0.660101 0.7741677 -0.188985 -0.61919147
0.79796064 -0.2786677 -0.7840719 -1.1643612 1.1887205 -1.0268431 -0.79404855 -0.2332892
0.7393571 -0.08488154 1.0913346 -0.8675577 -0.13248682 -0.8600162 0.91844726 -0.60324097
-0.9603721 -0.66023177 1.422506 0.23320007 -0.7122417 -1.1815093 0.3151485 0.18394844
0.82328355 0.83062583 1.0079055 -0.916166 -1.0354204 -1.1782737 -1.0881625 -0.15201184
1.1258273 0.5240987 -0.79520905 -0.84479946 0.17959315 -1.2916834 -0.9422422 -0.078183465
-1.3204077 -1.29065 -0.7763397 0.34327215 0.79562646 0.93773407 -0.16065417 0.038998738
-0.88988197 0.45742655 1.1871458 -0.9061126 0.11325433 0.20788385 0.57163227 -0.55102295
0.17582129 0.5150546 1.0647078 -1.0957596 0.4729468 0.12791423 -1.1936458 -1.0003548
0.22938164 0.48681462 -1.4515811 -0.09711402 0.034259584 0.92813474 -1.132781 0.26782414
0.19639038 0.01913905 -0.60890996 0.20261581 -0.072151884 0.97008306 0.17399238 -0.33366567
00000000: ce15 aabf 6d0f 4a3f d792 7abf f90f 3ebf
00000010: caef e53e 7b9e 813f e6eb af3e 0e58 073f
00000020: f433 d43e 871f cb3e 01d9 98be 7d81 083f
00000030: 1cc8 7abf ba19 8e3f 8830 b2bf 005e ebbe
00000040: 80ef 21bd 5652 8a3e 896f 8dbf e45f 2abf
00000050: c807 713f 003e 803f d321 8dbf 75a2 6fbf
00000060: 7b8a 1abf e4c5 86bf 0de0 813f ac9d cabd
00000070: d4a3 c73e 526e 0f3f ac66 4a3f f208 6bbf
00000080: 536b b9bf b33c 31bf 2953 f43d b38d 5abf
00000090: ddd9 63bf b56e ae3f df32 7e3f 382a 673f
000000a0: d31f 403f 2755 dd3e 850f 223f fe46 633e
000000b0: 778e afbf b798 20bf c115 8fbf e689 77bf
000000c0: ecaf bb3f 469c 3dbf 8bee 99bf cc03 b3be
000000d0: 4057 7c3e 7e2b 46bf 9a06 7ebf c759 b5bc
000000e0: 1e12 0b3e ecac 44be b648 92bf 3fcc 5f3f
000000f0: 0fc2 7e3e 2fb0 5fbf 05a1 1ebe 0696 923d
00000100: b5fa 293f 59b5 acbe 0c2f a4bf a516 c63d
00000110: 51ce 573f 7175 e7be 50e4 44bf a0fb 4dbf
00000120: 5e1e 5fbf d6de 29bf 7638 1b3c b11d ff3e
00000130: a5af 99be d0f6 af3f 5898 083f 2ece 62bf
00000140: 2939 b9bf 3a64 b13c 2970 253f f40d 893e
00000150: dedd 0c3f d6f7 983e 02ac babf fdbb 93bf
00000160: 39ce c53d 96cf 863f 0ac9 b0be e54b 7dbf
00000170: c39e d63e 7dbe 153f 3a1c 95bf 2c8d 24bf
00000180: 882b 533f a0c4 e7bd d42b 18bf 43e9 a0bf
00000190: 3233 8dbd cf79 6ebf c438 f63d 8d84 6f3f
000001a0: b667 083f 86d7 c7bf f2ae 57bf b5c0 863e
000001b0: baad 423f 02b7 90bf 4954 bbbf 8897 8a3e
000001c0: 90df 88be 8661 86bf f4ea 4dbf 469d 3d3e
000001d0: cd1f 5f3f a592 b7be 0ef0 783f 0e73 a0be
000001e0: 37e9 56be 63aa 743e 0b69 37bc a7de 19bf
000001f0: 3745 963f d64f ddbe 216c 87bf 8562 87bf
00000200: cc0d 63bf 88f6 aebf 65ac d4be 88aa fd3e
00000210: 8077 90bf 0ce3 a93f ec22 4f3f f1bb 473d
00000220: 13bd 5b3f c017 12bf f1ef 153f 32d2 09bf
00000230: 28f1 bebd 9d7d 87bf 0450 8cbf 4d8d 5f3f
00000240: 1ef0 0b3f c6ac 08bf 051b 833c aafd 173e
00000250: 78f7 4c3f e134 8cbf 9a60 24bf 4f3a 97bf
00000260: 19ab 09bf 2c9d 71bf 3333 2bbf 90b1 63bf
00000270: d25a 563f 0d6e 50bf 3e36 3e3f 79a1 703f
00000280: bb2d fb3e 082a e33e 682f dd3e 79e3 adbf
00000290: c0db 3b3f d31e 83bf d30b 43bf f168 df3d
000002a0: dd94 8d3e dbac 1a3f 6263 563f 479e 2fbf
000002b0: 61fc 28bf db2f 463f 4985 41be 5583 1ebf
000002c0: 2647 4c3f 88ad 8ebe f0b8 48bf ca09 95bf
000002d0: fe27 983f 986f 83bf c446 4bbf 5de3 6ebe
000002e0: 8246 3d3f 5fd6 adbd dab0 8b3f 4318 5ebf
000002f0: a0aa 07be 062a 5cbf 5c1f 6b3f 006e 1abf
00000300: f2da 75bf f304 29bf ad14 b63f 00cc 6e3e
00000310: 7955 36bf b23b 97bf 255b a13e fb5c 3c3e
00000320: b6c2 523f e5a3 543f 0c03 813f db89 6abf
00000330: a888 84bf acd1 96bf e948 8bbf fea8 1bbe
00000340: 1c1b 903f 552b 063f d292 4bbf c744 58bf
00000350: 44e7 373e e255 a5bf c936 71bf a71e a0bd
00000360: 1f03 a9bf 0534 a5bf 33be 46bf 5ec1 af3e
00000370: 2dae 4b3f 570f 703f 8782 24be 24bd 1f3d
00000380: 4ecf 63bf d033 ea3e 65f4 973f fff6 67bf
00000390: e3f1 e73d 81df 543e 7e56 123f d70f 0dbf
000003a0: 7f0a 343e 9eda 033f 5848 883f da41 8cbf
000003b0: 1526 f23e f3fb 023e 63c9 98bf a00b 80bf
000003c0: 05e3 6a3e c43f f93e 69cd b9bf b7e3 c6bd
000003d0: c753 0c3d 3d9a 6d3f f8fe 90bf 3f20 893e
000003e0: 8f1a 493e 7fc9 9c3c 86e1 1bbf 857a 4f3e
000003f0: 5ec4 93bd 5d57 783f 0f2b 323e 3ad6 aabe

l3.bias f4 [85]
-0.13062844 -0.61493367 -0.862157 -0.05472062 0.26408786 0.32993224 -0.007735334 0.2928165
-0.85058826 0.24487574 0.6715052 -0.2948989 -0.028477943 0.81246126 -0.2891029 -0.43042696
0.52983105 0.40403664 -0.4157955 -0.08284855 -0.02152386 -0.31762055 -0.60256517 -0.47012684
0.5487127 -0.2904709 -0.22037001 0.33340046 -0.007215732 -0.9988078 -0.6976211 -0.44279158
0.5730601 -0.66096926 -0.17094094 -0.44804803 -0.45685807 0.30353186 0.49183843 0.14469191
0.33336478 0.1426335 -0.47345963 -0.39965641 -0.2490934 0.39937 -0.26272413 -0.08524569
-0.5948051 0.44078067 -0.36129022 0.1267721 0.086067684 0.41483712 0.06761568 0.5040115
0.44077143 0.7076262 -0.44802988 0.113646775 0.09661502 0.34521496 -0.5206548 -0.2882507
0.34878534 0.9036086 0.3624233 -0.8870319 0.1875099 -0.25497478 -0.22567739 -0.36602804
-0.29939616 0.08651866 0.49185973 0.074283056 0.4226144 -0.15501508 -0.41503835 0.28455907
0.49308535 0.5153635 -0.34579855 -0.13192981 -0.44305885
00000000: 76c3 05be 4b6c 1dbf 52b6 5cbf bb22 60bd
00000010: 8636 873e e1ec a83e af78 fdbb 0bec 953e
00000020: 27c0 59bf b5c0 7a3e c4e7 2b3f fdfc 96be
00000030: 934a e9bc 76fd 4f3f 4c05 94be ec60 dcbe
00000040: 02a3 073f e4dd ce3e 26e3 d4be 80ac a9bd
00000050: ce52 b0bc 299f a2be b641 1abf 77b4 f0be
00000060: 6f78 0c3f 9ab8 94be ada8 61be 77b3 aa3e
00000070: f271 ecbb deb1 7fbf 4c97 32bf 94b5 e2be
00000080: 11b4 123f 4835 29bf 240b 2fbe 8d66 e5be
00000090: 4de9 e9be 8768 9b3e 3fd2 fb3e 1e2a 143e
000000a0: caae aa3e 840e 123e 4d69 f2be c49f ccbe
000000b0: 5712 7fbe 3a7a cc3e c783 86be 4b95 aebd
000000c0: 2645 18bf 01ae e13e 08fb b8be 8cd0 013e
000000d0: 4144 b03d 8865 d43e 177a 8a3d e606 013f
000000e0: cbac e13e fe26 353f 2c64 e5be a4bf e83d
000000f0: 18de c53d 04c0 b03e a249 05bf 9995 93be
00000100: fe93 b23e e552 673f 8c8f b93e 8614 63bf
00000110: 9802 403e 0e8c 82be f917 67be 0768 bbbe
00000120: 744a 99be b230 b13d 0ad5 fb3e b721 983d
00000130: ea60 d83e 46bc 1ebe e87f d4be bab1 913e
00000140: af75 fc3e ddee 033f 820c b1be 9c18 07be
00000150: 9cd8 e2be
